controllers/supervisor_one/models/saved/ddpg/TargetActor_ddpg.pth (torch, 755311 bytes, 8 tensors)

fc1.weight f4 [400, 17]
0	0xbdd40e51	-0.10354293
1	0x3d307587	0.043080833
2	0x3ba7d191	0.005121418
3	0x3dfce9d1	0.123492844
4	0xbd8bbba9	-0.06822903
5	0x3cebe5c2	0.02879608
6	0x3dea6157	0.11444347
7	0x3da715d6	0.08158462
8	0x3d612095	0.054962713
9	0xbe697623	-0.22798972
10	0xbdeb87b6	-0.11500494
11	0xbd9fbfee	-0.078002796
12	0xbcf1ec42	-0.029531602
13	0x3ea2a0ac	0.31763208
14	0x3e2dec09	0.16984572
15	0x3dbe5212	0.092929974
16	0xbde16940	-0.11006403
17	0x3c40895c	0.011751499
18	0xbde79e88	-0.11309534
19	0x3d969cc4	0.073541194
20	0xbdd63850	-0.104599595
21	0xbd67ac0f	-0.056560572
22	0xbda4ceef	-0.08047282
23	0x3d80e4de	0.06293653
24	0x3c4389dc	0.011934724
25	0x3d837e57	0.06420582
26	0x3e3fda2d	0.18735571
27	0xbe72efaa	-0.23724237
28	0xbda08320	-0.0783751
29	0x3e014610	0.12624383
30	0x3e05a89b	0.13052599
31	0x3d92f27d	0.07175157
32	0xbaf68d5a	-0.0018810437
33	0xbd41bdb5	-0.04730006
34	0x3e02dafc	0.12778848
35	0x3db9fc6e	0.0908135
36	0xbe03efd8	-0.12884462
37	0xbe043432	-0.12910536
38	0x3a0048f1	0.00048936816
39	0x3dde2dfe	0.10848616
40	0x3d8df883	0.069321655
41	0xbddfc94b	-0.109270655
42	0xbe104441	-0.14088537
43	0x3ea4252f	0.3205962
44	0x3d935239	0.07193417
45	0xbe46fe3c	-0.1943292
46	0xbd814d43	-0.06313565
47	0x3d822bba	0.063559964
48	0x3cc6532d	0.024209583
49	0x3d9b7a95	0.0759174
50	0xbddd932d	-0.10819087
51	0x3d890f86	0.06692414
52	0x3db3af52	0.08773674
53	0x3d2050bb	0.03913949
54	0xbe2109ab	-0.15726344
55	0x3e208bf8	0.15678394
56	0x3d513df4	0.051084474
57	0xbd64c211	-0.05584914
58	0x3e85438a	0.2602809
59	0xbd503180	-0.050828457
60	0xbbde92a4	-0.0067923833
61	0xbc162ae1	-0.009165497
62	0xbd8bc3df	-0.06824469
63	0xbe0e0735	-0.13869937
64	0x3e3e5d27	0.18590222
65	0xbd79218d	-0.060823012
66	0xbd94cd49	-0.072657175
67	0x3dc5ec85	0.09664253
68	0x38e40e9a	0.00010874607
69	0xbd280e60	-0.041029334
70	0x3dce244d	0.100655176
71	0xbd233e08	-0.03985408
72	0xbdaa2ee1	-0.08309723
73	0x3e31eb09	0.17374815
74	0xbe0b69f3	-0.13614635
75	0xbd054ce9	-0.03254405
76	0xbdedd3ab	-0.11612638
77	0xbdcceb53	-0.10005822
78	0xbdf55a02	-0.11980058
79	0x3e26828a	0.16260734
80	0xbd87779f	-0.06614613
81	0xbe0be051	-0.13659789
82	0xbd4e9581	-0.050435547
83	0xbe1204f4	-0.14259702
84	0xbde1aa8a	-0.11018856
85	0x3c144f1d	0.009052065
86	0x3d3afb6a	0.045649923
87	0xbd0164b9	-0.031590197
88	0x3de45eb8	0.11150879
89	0x3d3dee53	0.04636986
90	0x3d100bb2	0.035167404
91	0x3dd152be	0.1022086
92	0x3e0843de	0.1330714
93	0xbdb9d360	-0.0907352
94	0xbde84535	-0.11341325
95	0xbf51e42e	-0.819888
96	0xbe810868	-0.25201726
97	0xbe22de94	-0.1590522
98	0xbbdb183c	-0.0066862386
99	0xbdd3a641	-0.10334445
100	0x3d99bbd3	0.07506528
101	0xbdf903e9	-0.12158949
102	0x3deedbb4	0.11662999
103	0x3e5761d5	0.21033414
104	0x3d8d69e7	0.06904965
105	0xbdefc3ac	-0.11707243
106	0xbd668485	-0.056278724
107	0xbdd00b69	-0.10158426
108	0x3d836989	0.064166136
109	0xbd9b3eca	-0.075803354
110	0xbdaca22a	-0.08429368
111	0xbe8da453	-0.27664432
112	0x3e7665d0	0.24062276
113	0x3d957853	0.07298341
114	0x3d145330	0.036212146
115	0x3d477a91	0.048700873
116	0xbd2122e1	-0.039339904
117	0x3e01c1c2	0.12671569
118	0xbdd0dfbe	-0.101989254
119	0xbdece028	-0.11566192
120	0x3e2a38a6	0.16623172
121	0x3e1d5cce	0.15367433
122	0x3d598711	0.053107325
123	0xbca07dae	-0.019591179
124	0xbd8b9dec	-0.068172306
125	0x3e41a21c	0.18909496
126	0xbe5b7658	-0.21431863
127	0x3df45018	0.11929339
128	0xbe138f33	-0.14410095
129	0x3de12094	0.10992542
130	0xbdba26ee	-0.090894565
131	0x3c0a3da6	0.00843755
132	0xbe7e66da	-0.24843922
133	0xbdb698bf	-0.08915853
134	0x3e0461d9	0.12927951
135	0x3c468239	0.012116008
136	0x3d3d32a1	0.04619086
137	0xbdc00e67	-0.09377747
138	0xbde86fc5	-0.11349443
139	0x3dab35ea	0.08359893
140	0x3def99d2	0.11699261
141	0xbe557b25	-0.20847757
142	0x3d531b95	0.051539976
143	0x3dc13b91	0.094351895
144	0xba44e80c	-0.00075113843
145	0xbe83227e	-0.25612253
146	0x3dec6abe	0.11543797
147	0x3de3120a	0.11087425
148	0x3db26130	0.08709943
149	0xbeae7708	-0.3407519
150	0x3c6d8b36	0.0144985225
151	0x3dd940d1	0.10608066
152	0x3cb6fcac	0.02233728
153	0xb911cb36	-0.0001390398
154	0x3e1f63a7	0.15565358
155	0xbd8c58c5	-0.06852869
156	0x3e24818c	0.16065043
157	0x3dccbc21	0.0999682
158	0x3da7b2d3	0.08188405
159	0xbe3c6f5b	-0.18401854
160	0x3cd134d5	0.025537888
161	0x3de60a52	0.11232437
162	0x3eb43226	0.3519451
163	0x3cd88a94	0.026433267
164	0xbdebe95a	-0.11519118
165	0x3d73ef40	0.05955434
166	0xbd097245	-0.03355624
167	0xbe2d6baa	-0.16935602
168	0xbe3a9133	-0.18219452
169	0x3ddda60f	0.10822689
170	0x3d7587f5	0.05994411
171	0x3d0a606e	0.03378337
172	0xbc8d98c9	-0.017284768
173	0x3dc0e77c	0.09419152
174	0x3c8aa957	0.01692645
175	0x3ddd3342	0.10800792
176	0xbe3d0dd1	-0.18462302
177	0xbdc0a1bc	-0.094058484
178	0xbde0400b	-0.10949715
179	0xbd3df3da	-0.046375133
180	0x3d56afd8	0.05241379
181	0x3d9d7060	0.076874495
182	0x3d65fe80	0.056150913
183	0x3e3a1726	0.18172893
184	0xbe53ccc9	-0.20683588
185	0x3cac7884	0.02105356
186	0x3d9e5f88	0.07733065
187	0xbdbd302e	-0.09237705
188	0x3d8005ac	0.06251082
189	0x3e08441c	0.13307232
190	0x3e0994f6	0.1343573
191	0xbdb4f0bd	-0.0883498
192	0x3ba29d09	0.0049625677
193	0x3dfc22c5	0.12311319
194	0xbe7da0ce	-0.24768373
195	0xbe0419ed	-0.12900515
196	0xbe223c77	-0.15843378
197	0x3c82da71	0.015973302
198	0x3e2bf044	0.16790873
199	0xbe0c23c8	-0.13685524
200	0xbebc155f	-0.36735055
201	0x3d7af090	0.061264575
202	0xbdf00c65	-0.11721114
203	0x3e06d13b	0.13165753
204	0xbe391a25	-0.1807638
205	0xbdaa89a2	-0.083270326
206	0x3dbb3a4c	0.091419786
207	0x3df6d927	0.12053137
208	0x3e22ad67	0.1588646
209	0xbde0a616	-0.109691784
210	0xbdf21746	-0.11820845
211	0x3d522875	0.051308114
212	0xbdc8e51e	-0.09809326
213	0x3e2188af	0.15774797
214	0x3ddd13f3	0.10794821
215	0x3d976896	0.07392995
216	0x3d72b1fc	0.05925177
217	0xbecd321e	-0.400773
218	0xbd9230dd	-0.07138226
219	0x3e3435d0	0.17598653
220	0x3c9ba63c	0.019000165
221	0xbd187b0e	-0.03722673
222	0xbe01e200	-0.12683868
223	0xbd452887	-0.048134353
224	0x3d85200c	0.06500253
225	0xbabfa295	-0.0014620597
226	0xbcd448c0	-0.025913596
227	0xbcc5ebcf	-0.024160294
228	0x3e165a2e	0.14682838
229	0xbbe0d126	-0.00686087
230	0x3d94fafb	0.07274433
231	0x3d6d7239	0.05797026
232	0x3e0af1e4	0.13568836
233	0x3e3c8d43	0.18413262
234	0xbe342ed9	-0.17595996
235	0xbdf1cd17	-0.11806696
236	0x3e4f364f	0.20235561
237	0x3da94035	0.082642
238	0xbe1353c7	-0.14387427
239	0xbe0e6e7f	-0.13909338
240	0x3db7343a	0.08945508
241	0xbdae64e5	-0.08515338
242	0x3c940d32	0.018072698
243	0x3df1db2d	0.118093826
244	0x3e05d3a5	0.13069017
245	0xbd86a341	-0.06574107
246	0xbd578425	-0.052616257
247	0xbe3c8541	-0.18410207
248	0xbe46b3c8	-0.19404519
249	0x3e074ab5	0.13212092
250	0x3ddcdffb	0.107849084
251	0x3d40f32f	0.047106918
252	0x3e337cb5	0.1752804
253	0x3d61cea9	0.055128727
254	0xbdcd81f1	-0.1003455
255	0xbc922958	-0.01784198

fc1.bias f4 [400]
0	0x3d7392da	0.05946622
1	0x3e06650f	0.13124488
2	0x3d77a4bc	0.060459837
3	0xbdf8f0ec	-0.12155327
4	0x3dd933a7	0.10605555
5	0x3e325af9	0.17417516
6	0xbd53c748	-0.05170372
7	0x3e6e20bf	0.23254679
8	0x3e3a0c66	0.18168792
9	0xbe5f35a7	-0.2179781
10	0xbdac9c53	-0.08428254
11	0xbe217b72	-0.15769747
12	0x3dfc214b	0.12311038
13	0xbe2571e8	-0.16156733
14	0xbdd7a76e	-0.105299816
15	0xbdb605b2	-0.08887805
16	0xbe53fdb6	-0.20702252
17	0x3dd5bbbb	0.10436197
18	0xbdf09e28	-0.11748916
19	0x3daf3194	0.08554378
20	0x3e7c5660	0.24642324
21	0x3e52c850	0.20584226
22	0xbd873c91	-0.06603349
23	0x3e22d697	0.15902172
24	0xbaa3e20c	-0.001250328
25	0x3e45d9e6	0.19321403
26	0xbd8f3d6f	-0.069941394
27	0xbdf6aac7	-0.12044292
28	0x3db4a3c9	0.08820302
29	0x3e15fad3	0.14646463
30	0x3c7a24f9	0.015267604
31	0x3de065da	0.10956927
32	0x3dfa3212	0.122165814
33	0x3e46bfb2	0.19409063
34	0x3e5a2b81	0.21305658
35	0xbd288ece	-0.041151814
36	0xbbac5993	-0.0052597015
37	0xbdec2e45	-0.11532263
38	0x3e1896bf	0.14901255
39	0x3e1c136a	0.15241781
40	0x3d000030	0.03125018
41	0x3d7e0448	0.0620158
42	0xbe3aac89	-0.1822988
43	0xbe148bcc	-0.14506453
44	0xbde14305	-0.10999111
45	0x3dcb13aa	0.0991586
46	0xbe001f5a	-0.1251196
47	0xbe6ea9a7	-0.23306905
48	0x3d00a9e5	0.031412024
49	0xbdfa7463	-0.1222923
50	0x3de22ee0	0.11044097
51	0x3df2bfa0	0.11852956
52	0x3dc217f5	0.09477226
53	0xbe32c824	-0.1745916
54	0xbae9277a	-0.0017788254
55	0xbd3d1d02	-0.046170242
56	0xbe114ecc	-0.14190215
57	0x3dafc7a0	0.08582997
58	0xbcb26127	-0.021774841
59	0x3e161712	0.14657238
60	0xbe4fd5f9	-0.20296468
61	0xbe15bf64	-0.14623791
62	0xbe0cca8d	-0.13749142
63	0xbd219a6a	-0.0394539
64	0xbcb63375	-0.022241333
65	0x3cd010cb	0.025398633
66	0x3c159a72	0.009131061
67	0x3cb11e70	0.021620959
68	0x3d8f9c71	0.07012261
69	0xbdd7f1ad	-0.10544143
70	0xbe452357	-0.19251762
71	0x3e3361b6	0.17517743
72	0xbd566fea	-0.052352823
73	0x3e0be98b	0.13663308
74	0xbe350abe	-0.17679879
75	0xbd3a9e23	-0.045560967
76	0xbe67a5fa	-0.22621909
77	0xbe452bcf	-0.19254993
78	0xbe036081	-0.12829782
79	0xbcbe168d	-0.023204112
80	0xbdcc713f	-0.099825375
81	0x3e1911b9	0.14948167
82	0x3e061b93	0.13096456
83	0xbe76a7b4	-0.24087411
84	0x3d2d8eda	0.042372562
85	0x3cf17aa4	0.029477425
86	0xbcf847cb	-0.030307671
87	0x3e62f524	0.22163826
88	0x3e4bae5a	0.19890729
89	0xbe52cab1	-0.20585133
90	0xbe357939	-0.17722024
91	0xbe419a06	-0.18906412
92	0x3e38d144	0.18048579
93	0x3e2545c0	0.16139889
94	0x3d1d0e35	0.038343627
95	0xbdb511a1	-0.08841253
96	0xbdead78e	-0.11466895
97	0xbdb7d662	-0.08976437
98	0xbe0e8416	-0.13917574
99	0x3de178aa	0.11009343
100	0xbd08beb6	-0.033385
101	0xbe37a35f	-0.17933415
102	0x3e712973	0.23550968
103	0xbe15b6e8	-0.14620554
104	0x3db7ea34	0.089802176
105	0xbe69de15	-0.22838624
106	0x3de10b5e	0.10988496
107	0xbe755fed	-0.23962374
108	0xbd51d472	-0.051227994
109	0xbe00ada4	-0.12566239
110	0xbe2acff3	-0.16680889
111	0x3e02b4ec	0.12764329
112	0x3e76dec9	0.24108423
113	0x3de9fc04	0.11425021
114	0xbe572061	-0.21008445
115	0xbe4be912	-0.19913128
116	0x3dc03ea2	0.09386946
117	0x3e021068	0.12701571
118	0x3da96b04	0.08272365
119	0x3e25bcc2	0.16185287
120	0x3d30974b	0.043113034
121	0x3e260b9f	0.1621537
122	0x3dca4d7a	0.09878059
123	0xbe3bc604	-0.18337256
124	0xbe443b6f	-0.19163297
125	0x3dd4340e	0.10361491
126	0xbe4b2bc5	-0.19840916
127	0x3e5db17d	0.21649738
128	0x3e1bd83a	0.15219203
129	0x3c811c31	0.015760513
130	0x3b1fcb91	0.002438281
131	0xbddfa9d3	-0.10921063
132	0x3de93147	0.11386352
133	0xbe2d4595	-0.16921075
134	0x3e6ac15a	0.2292532
135	0x3e53b0f3	0.2067297
136	0xbe5cdc71	-0.21568467
137	0x3e300596	0.17189631
138	0x3db879af	0.09007584
139	0xbe711e3a	-0.23546687
140	0xbe216c18	-0.1576389
141	0x3d3699f0	0.0445804
142	0x3e00df9e	0.12585303
143	0x3e18e8e6	0.14932594
144	0x3d1de2e6	0.038546465
145	0xbd97e172	-0.07416047
146	0x3ccd8529	0.02508791
147	0xbe0e593e	-0.1390123
148	0xbd6d625c	-0.05795513
149	0x3e041e29	0.1290213
150	0xbb794b20	-0.0038039163
151	0x3d8edbee	0.06975542
152	0x3d341120	0.043961644
153	0xbe5d089f	-0.2158532
154	0x3e4a1777	0.19735514
155	0x3e21f2d5	0.1581529
156	0xbddd67a0	-0.108107805
157	0x3e17db47	0.14829741
158	0xbe6e4f12	-0.2327235
159	0xbd3bec73	-0.045879792
160	0x3da4af7d	0.08041284
161	0xbe2cb325	-0.16865213
162	0xbdec0827	-0.115249924
163	0x3d85319e	0.06503604
164	0x3e7f07af	0.24905275
165	0x3e1515d8	0.14559114
166	0x3c8c08d3	0.017094051
167	0x3dd89d93	0.1057693
168	0x3e8b2822	0.27179056
169	0xbe3831b3	-0.17987709
170	0x3e830b51	0.2559457
171	0x3d60f202	0.054918297
172	0x3e4d6398	0.20057523
173	0xbdc63252	-0.096775666
174	0xbe03ba6d	-0.12864085
175	0x3e93eefc	0.28893268
176	0xbd5c04df	-0.053715583
177	0xbd933e52	-0.07189621
178	0xbdc02574	-0.093821436
179	0x3e616f61	0.22015144
180	0x3d814220	0.063114405
181	0x3d608559	0.05481467
182	0x3d96abd1	0.0735699
183	0xbe560995	-0.20902093
184	0xbe35909a	-0.17730942
185	0x3dcce381	0.100043304
186	0xbe4f7c3e	-0.20262238
187	0xbde79f48	-0.11309677
188	0x3d13b122	0.0360576
189	0xbdae3af5	-0.08507339
190	0xbe388ba5	-0.1802202
191	0xbe34b82a	-0.17648378
192	0xbdd01f30	-0.101621985
193	0x3d54ed11	0.051983897
194	0xbdebdac6	-0.11516337
195	0xbd42a1da	-0.047517635
196	0xbe0df099	-0.13861312
197	0x3dfacc1d	0.12245963
198	0x3df8456d	0.12122617
199	0xbd9ea27f	-0.077458374
200	0xbe06a7b8	-0.13149917
201	0xbc05e6d2	-0.008172708
202	0x3dc6c94b	0.09706362
203	0x3e170a15	0.1474994
204	0xbe1c00d1	-0.15234686
205	0x3d64017b	0.055665474
206	0x3da3b562	0.079935804
207	0x3e086b1e	0.13322112
208	0xbdec6955	-0.11543528
209	0x3db582d2	0.088628426
210	0x3e3fde19	0.18737067
211	0xbe0efbff	-0.13963316
212	0xbdfca2f5	-0.12335769
213	0x3dd37bdd	0.103263594
214	0x3c0a9da6	0.008460438
215	0x3e082b81	0.13297845
216	0x3d9f265c	0.07770988
217	0xbd6760e3	-0.056488883
218	0x3c91bb9e	0.017789658
219	0xbe73b0bb	-0.23797886
220	0xbdce7788	-0.100813925
221	0x3d9a12a9	0.075230904
222	0xbd2653fc	-0.040607437
223	0xbcb497c7	-0.02204503
224	0xbe7dddc1	-0.24791624
225	0xbe3349c6	-0.17508611
226	0xbd1eb20b	-0.038744014
227	0x3e2bb573	0.16768436
228	0x3e7807ac	0.24221677
229	0xbe92c669	-0.28667
230	0x3dbaa277	0.09113019
231	0xbdf625ce	-0.120189294
232	0x3e5b0b6b	0.21391074
233	0x3c98b0bc	0.018638961
234	0x3dee293b	0.11628958
235	0x3e1f641b	0.15565531
236	0x3e194dd8	0.14971101
237	0x3c948c04	0.01813317
238	0xbdb0bd85	-0.08629898
239	0x3dfc5220	0.123203516
240	0x3e374788	0.17898381
241	0xbda76ff3	-0.081756495
242	0x3d8e8ac3	0.069600604
243	0x3e36e91f	0.17862366
244	0x3e39df78	0.18151653
245	0xbdb30801	-0.08741761
246	0xbe091dee	-0.13390324
247	0x3d68fb13	0.056880068
248	0x3e52e267	0.20594178
249	0xbe64189b	-0.22275011
250	0xbdbfee57	-0.093716316
251	0x3d648a94	0.05579622
252	0x3e504fa0	0.20342875
253	0x3c39bc43	0.011336389
254	0xbd7cb69a	-0.06169758
255	0xbe001361	-0.12507392

fc2.weight f4 [300, 400]
0	0x3d885b5e	0.06658052
1	0xbd9c6be9	-0.0763777
2	0xbd16e5e2	-0.036840327
3	0xbd01498b	-0.031564277
4	0xbc7029e1	-0.014658422
5	0x3d5d1811	0.05397803
6	0x3ca5ed13	0.020254647
7	0xbbbb7c5f	-0.0057216133
8	0xbd875c27	-0.066093735
9	0xbe6aebab	-0.22941463
10	0xbe0da974	-0.13834172
11	0xbc342948	-0.01099617
12	0x3d323354	0.04350598
13	0xbd124e46	-0.03571918
14	0x3de6d211	0.11270536
15	0xbd555d3f	-0.05209088
16	0xbd8892c9	-0.06668622
17	0xbdc707e5	-0.09718303
18	0xbce30201	-0.027710916
19	0xbe58517c	-0.21124834
20	0x3e160b2a	0.14652696
21	0xbdc14828	-0.09437591
22	0xbc911637	-0.017710788
23	0xbddf3dbe	-0.10900448
24	0xbe2beeb1	-0.16790272
25	0xbd6209ff	-0.055185314
26	0xbe3f2d2b	-0.18669574
27	0x3c4b352d	0.012402815
28	0x3d8355ef	0.06412875
29	0xbe451921	-0.19247867
30	0xbe038463	-0.1284347
31	0x3d0c74ff	0.034291264
32	0x3db12bd2	0.08650936
33	0xbe09ff91	-0.13476397
34	0xbdf2b2bd	-0.11850498
35	0x3c03a21d	0.008034256
36	0xbe233604	-0.15938574
37	0x3e1188b4	0.14212304
38	0xbde3afee	-0.1111754
39	0xbdeb26fb	-0.11482044
40	0xbdfe05d2	-0.12403454
41	0x3de5b7b8	0.11216682
42	0xbd938750	-0.07203543
43	0xbdc9e037	-0.09857219
44	0x3d2c0fc6	0.04200723
45	0x3dd1d3b1	0.10245455
46	0xbd842471	-0.06452263
47	0xbdc19fa8	-0.0945428
48	0x3d67020a	0.05639843
49	0xb859fe26	-5.1973526e-05
50	0xbd7e4e5c	-0.062086448
51	0x3d4e6c0e	0.050396018
52	0x3e459c57	0.1929792
53	0xbe125c90	-0.14293122
54	0xbd22bdd7	-0.039731827
55	0xbe0f133a	-0.13972178
56	0x3db26f98	0.08712691
57	0xbd510722	-0.051032193
58	0x3d002dd7	0.031293716
59	0xbe2dcc56	-0.16972479
60	0x3daacb66	0.083395764
61	0x3e12fccd	0.14354248
62	0x3d98420a	0.07434471
63	0x3d25f22a	0.04051415
64	0xbd58090b	-0.052743
65	0xbd113165	-0.035447497
66	0x3ca97f7d	0.020690674
67	0x3d341233	0.04396267
68	0xbdf34b7d	-0.118796326
69	0x3d8959a0	0.06706548
70	0xbd81e7db	-0.06343051
71	0xbd26e600	-0.04074669
72	0x3e03d7f7	0.12875353
73	0x3e0141a6	0.12622699
74	0xbdb1599e	-0.08659671
75	0x3c4cda56	0.012503227
76	0xbdb57a11	-0.08861173
77	0x3e7a0dfc	0.24419397
78	0x3ce0edbe	0.027457114
79	0xbe1c170b	-0.15243165
80	0x3df0ead9	0.11763544
81	0x3c665531	0.014058397
82	0xbdd57ec7	-0.104245715
83	0x3cb28d11	0.021795781
84	0xbd255d45	-0.040372152
85	0x3d23002d	0.03979509
86	0x3b4c7997	0.0031200403
87	0xbe0831bd	-0.13300224
88	0xbc94821e	-0.018128451
89	0x3dd0fe4c	0.10204753
90	0x3e343663	0.17598872
91	0x3d565f4d	0.05233698
92	0x3d702a94	0.058634356
93	0x3c88299d	0.016621405
94	0xbd5824bc	-0.052769408
95	0x3dcfecb9	0.10152573
96	0xbc5f15a1	-0.013615997
97	0x3dfec9c8	0.124408305
98	0xbbf9d265	-0.007623958
99	0x3d96e8f2	0.073686495
100	0xbe66e237	-0.22547232
101	0xbc8c1d7b	-0.017103901
102	0xbde83d58	-0.113398254
103	0xbce84cac	-0.028356872
104	0xbac9adac	-0.0015386841
105	0xbdc6d28c	-0.097081274
106	0x3d4c87fc	0.049934372
107	0xbe2d91ad	-0.16950102
108	0xbdc774e1	-0.0973909
109	0xbd66533e	-0.05623173
110	0x3da161c7	0.07879978
111	0x3da99b7f	0.08281612
112	0xbceffd4d	-0.029295588
113	0x3d79524f	0.06086951
114	0x3dddea06	0.10835652
115	0xbc6715d5	-0.014104326
116	0xbdde5c81	-0.108574875
117	0x3c027207	0.007961757
118	0x3d237fc7	0.03991678
119	0xbdf4d57d	-0.11954782
120	0xbe0198c6	-0.12655935
121	0x3d74e1af	0.05978554
122	0xbdd76f0c	-0.105192274
123	0xbe1f440f	-0.15553306
124	0xbdcd5cad	-0.10027442
125	0xbcedc845	-0.02902616
126	0xbd6ba479	-0.0575299
127	0x3de79371	0.11307419
128	0xbd1c0b9d	-0.038097013
129	0x3d1e818c	0.038697764
130	0xbdd74d27	-0.105127625
131	0x3dc697c8	0.09696919
132	0xbe17a78b	-0.14810006
133	0xbe1e3f1f	-0.15453766
134	0x3d577626	0.05260291
135	0x3d9d256e	0.07673155
136	0x3c9b2868	0.018940166
137	0x3e3789ee	0.1792371
138	0xbdfb3e90	-0.12267792
139	0x3d7502e7	0.05981722
140	0xbc5c756a	-0.013455728
141	0xbdb0d156	-0.08633678
142	0xbde79118	-0.11306971
143	0xbda91a10	-0.08256924
144	0xbd7527cd	-0.05985241
145	0x3c763318	0.01502683
146	0x3dfa65a7	0.1222642
147	0x3d560e69	0.052259836
148	0x3d68c8ba	0.056832053
149	0xbd23ad6e	-0.039960317
150	0xbd305fd0	-0.043060124
151	0x3cd086bf	0.025454877
152	0xbe84b8ed	-0.25922337
153	0xbd1973bc	-0.03746389
154	0xbddf7d8a	-0.109126166
155	0xbe122ace	-0.14274141
156	0x3e8a1ab2	0.26973492
157	0xbda17732	-0.07884063
158	0x3df1b01d	0.11801169
159	0xbe6e76ca	-0.23287502
160	0xbd46725a	-0.048448898
161	0x3e3f3b88	0.18675053
162	0x3e15e8f7	0.1463965
163	0xbe9a29da	-0.30110055
164	0x3cc88a04	0.024479873
165	0xbe17e036	-0.14831623
166	0xbe870f8f	-0.26379058
167	0xbdcb2e0a	-0.09920891
168	0x3dea6b8b	0.114462934
169	0x3c4b5552	0.012410479
170	0xbd59817b	-0.053101998
171	0xbe0bde50	-0.13659024
172	0xbcfbbebf	-0.030730603
173	0x3da8cb44	0.08241895
174	0xbdc23cd4	-0.09484258
175	0xbe5da5a3	-0.21645217
176	0xbd922344	-0.07135633
177	0xbe1807de	-0.14846751
178	0xbe23b077	-0.15985285
179	0xbe127e3e	-0.1430597
180	0xbdec784f	-0.115463845
181	0xbd70e3f8	-0.058811158
182	0xbd298057	-0.04138216
183	0xbd9d7c66	-0.07689743
184	0x3dc7a42b	0.097481094
185	0xbcff5447	-0.031168116
186	0x3cef9fe5	0.029251048
187	0x3e1ca33f	0.15296648
188	0xbdbc4c24	-0.0919421
189	0xbe06c351	-0.13160445
190	0x3dc30089	0.095215864
191	0xbc48ef15	-0.012264033
192	0x3b1255bc	0.0022328934
193	0xbd8291fc	-0.063755006
194	0x3d40f2a3	0.047106396
195	0x3dc19ade	0.09453367
196	0xbd316c05	-0.043315906
197	0x3d5266ac	0.051367447
198	0x3e1ec2d9	0.15504016
199	0xbe508910	-0.20364785
200	0x3cc25cad	0.023725832
201	0x3c10c565	0.008836125
202	0xbd4cae55	-0.049970943
203	0xbc8876b8	-0.016658172
204	0xbd785b7f	-0.060634132
205	0x3cd6a445	0.026201377
206	0xbe09b3e4	-0.13447529
207	0x3d2ea1b7	0.042634692
208	0xbe185806	-0.14877328
209	0x3bb1ec6e	0.005429796
210	0x3c87f86d	0.01659795
211	0xbe283f86	-0.16430482
212	0xbcc585df	-0.024111686
213	0xbe136c62	-0.14396814
214	0xbe0bd962	-0.13657144
215	0xbc8660db	-0.016403606
216	0xbdeb76a5	-0.11497239
217	0xbcfcf9c1	-0.03088081
218	0xbe0d5ac7	-0.1380416
219	0xbdf6762c	-0.12034258
220	0xbd9f9183	-0.07791426
221	0xbdc59d27	-0.09649115
222	0x3df36a64	0.11885527
223	0xbdc95cf1	-0.0983218
224	0xbe531ce4	-0.2061649
225	0xbe2cd10f	-0.16876625
226	0x3d8b9a27	0.068165116
227	0x3dfbc0d7	0.12292641
228	0xbd3b2a53	-0.04569466
229	0xbd9e4a29	-0.07728989
230	0xbdb86999	-0.09004516
231	0x3bdd831d	0.0067600147
232	0xbd0cb477	-0.034351792
233	0xbd40657a	-0.046971776
234	0x3d313f5b	0.04327331
235	0x3e18477b	0.14871018
236	0xbdc5b024	-0.09652737
237	0x3dce30f2	0.10067929
238	0xbd85940e	-0.0652238
239	0xbdcf96ef	-0.1013621
240	0xbd42bdf4	-0.047544435
241	0xbe6fa7e6	-0.23403892
242	0x3ddf8f0e	0.109159574
243	0xbd158f19	-0.03651342
244	0xbe0f9d62	-0.1402488
245	0x3cb928d2	0.022602472
246	0xbdaa6905	-0.08320812
247	0x3d88fd3c	0.066889256
248	0x3d71c719	0.059027765
249	0x3ce081ae	0.027405586
250	0x3c587222	0.013210805
251	0xbe0bf509	-0.13667692
252	0xbe27aae5	-0.16373785
253	0x3c95ddd7	0.018294258
254	0x3d071521	0.032979134
255	0x3d8f5dd5	0.07000319

fc2.bias f4 [300]
0	0xb992c104	-0.00027991098
1	0x3bf59e00	0.0074956417
2	0x3d54ee11	0.05198485
3	0xbd073db6	-0.033017837
4	0x3d8e96e3	0.06962373
5	0xbd74e5dc	-0.059789523
6	0xbd8dcc11	-0.06923688
7	0x3ca12f0b	0.019675752
8	0xbc0436a4	-0.008069668
9	0xbc8e17c1	-0.017345311
10	0xbd29285e	-0.041298263
11	0x3bc9a774	0.006153995
12	0x3d0ddae6	0.034632586
13	0xbcdf1503	-0.027231699
14	0x3dbc88db	0.092057906
15	0xbbbd10d6	-0.0057698293
16	0x3cdeb24f	0.027184634
17	0x3d10323b	0.035204154
18	0x3d985e40	0.07439852
19	0x3d52b753	0.051444363
20	0xbd94654c	-0.07245883
21	0x3d32556c	0.043538496
22	0xbc8e663e	-0.017382737
23	0xbcf2d1bc	-0.029641025
24	0xbc8418bc	-0.016125076
25	0xbd81c07e	-0.06335543
26	0xbd7b16cd	-0.06130104
27	0x3d9778d1	0.07396091
28	0xbd7a2541	-0.061070684
29	0xbca3ab08	-0.019979015
30	0x3aae00d6	0.0013275396
31	0xbd928467	-0.0715416
32	0x3b2a08cb	0.0025945182
33	0xbcdf70f7	-0.027275546
34	0xbd6175a5	-0.055043835
35	0x3d395cee	0.04525464
36	0xbd3968a8	-0.045265824
37	0xbc4a5d78	-0.012351386
38	0xbd9d696c	-0.07686123
39	0xbc97870f	-0.018497018
40	0x3d800589	0.06251056
41	0xbd018519	-0.031621072
42	0xbd67fc3f	-0.056637045
43	0xbd500e87	-0.050795104
44	0x3c89d64e	0.016825821
45	0xbb806c8b	-0.0039191893
46	0x3d09b428	0.033619076
47	0x3d0dda11	0.034631792
48	0x3d4ac660	0.04950559
49	0x3d184c9b	0.03718243
50	0x3d4cf593	0.050038885
51	0x3cc163bf	0.023607133
52	0xbd238c4e	-0.039928727
53	0xbbd9bedb	-0.006645066
54	0x3d8b22c6	0.06793742
55	0xbd17c7b6	-0.037055694
56	0xbd5d9dcb	-0.05410556
57	0x3d2e83b9	0.04260609
58	0x3d6ea961	0.058267
59	0xbd24b9e2	-0.040216334
60	0x3d8f1336	0.06986086
61	0x3d46e4f3	0.048558187
62	0x3b9f2c7e	0.004857599
63	0x3c4a7ccf	0.012358858
64	0x3d8f3ae3	0.069936536
65	0xbb0cbbf1	-0.0021474326
66	0x3ce061bb	0.027390352
67	0xbd38fd00	-0.045163155
68	0xbd4c110b	-0.04982094
69	0xbd8bc5d7	-0.06824844
70	0xbc1c03fd	-0.009522435
71	0x3bf5d706	0.0075024394
72	0x3ccd5be8	0.025068238
73	0xbd6e60bf	-0.058197733
74	0x3cfde4ff	0.030992983
75	0x3b4df550	0.0031426735
76	0xbd032e6a	-0.032026686
77	0x3b4ff328	0.0031730626
78	0x3d7ab208	0.06120494
79	0x3c87ff5c	0.016601257
80	0x3ccb3148	0.024803773
81	0x3ccdfc2a	0.025144655
82	0xbcbc24e4	-0.02296681
83	0x3d9f8217	0.077884845
84	0x3d0c3de7	0.034238722
85	0xba447a3f	-0.0007495023
86	0xbce53cfb	-0.02798318
87	0xbd923573	-0.07139101
88	0xbccc9582	-0.024973635
89	0x3bd6b8f4	0.00655281
90	0xbcc13dd0	-0.023589045
91	0x3be9576d	0.0071210177
92	0xbcbe7ba3	-0.023252314
93	0xbda15ec9	-0.07879407
94	0xbb75fe3b	-0.0037535566
95	0xbd05911d	-0.032609094
96	0x3d8a5b95	0.06755749
97	0x3b99916c	0.004686525
98	0x3cb49998	0.022045895
99	0xbc5d0549	-0.01349003
100	0x3d9d7ef2	0.076902285
101	0x3bc725f1	0.006077521
102	0xbc7ac2ea	-0.01530526
103	0x3c3c8b71	0.011507855
104	0xbd3a4d60	-0.045483947
105	0x3b0faa2b	0.0021921496
106	0xbd13795b	-0.036004405
107	0x3c538c19	0.01291182
108	0xbbaa2209	-0.0051920456
109	0xbd919123	-0.07107761
110	0xbc23d544	-0.009999577
111	0xbd7276be	-0.059195273
112	0xbd22c307	-0.039736774
113	0x3c754f1c	0.014972474
114	0xbcc1bfd4	-0.023651041
115	0x3ce8a47c	0.028398745
116	0x3cb6b18a	0.022301454
117	0x3c80d8c0	0.015728354
118	0x3d1e4ec2	0.038649328
119	0xbd0df72d	-0.034659553
120	0xbc89efaa	-0.016837914
121	0xb99db506	-0.00030080247
122	0xbcbc1440	-0.022958875
123	0xbdbc19a4	-0.09184578
124	0x3d33d478	0.043903798
125	0x3cc4d873	0.024028992
126	0xbc02325a	-0.007946575
127	0x3d026552	0.031834908
128	0xbc53c2b4	-0.012924839
129	0xbd885a78	-0.066578805
130	0xbd337837	-0.043815818
131	0xbbd5ad4d	-0.006520903
132	0x3c3837f6	0.011243811
133	0x3ca85933	0.020550346
134	0x3dbe4452	0.09290375
135	0xbccbdedd	-0.024886543
136	0xbd435cda	-0.047695972
137	0xbd07b2f8	-0.033129662
138	0xbd3b6b11	-0.045756403
139	0xbbb06515	-0.0053831437
140	0x3c624043	0.0138092665
141	0xbba43515	-0.0050112107
142	0xbd58f144	-0.052964464
143	0xbc140dd8	-0.009036504
144	0xbd85630f	-0.065130346
145	0xbc56181c	-0.013067272
146	0xbcfe97f0	-0.031078309
147	0x3cb2395c	0.021755867
148	0xbd287056	-0.041122757
149	0xbd9c9e80	-0.07647419
150	0xbd10e3af	-0.035373386
151	0xbc311c4d	-0.01080997
152	0xbc9bb08c	-0.019005083
153	0x3cfb9834	0.030712225
154	0x3b8e2ed9	0.004339081
155	0x3d1bb91a	0.038018323
156	0x3cdb9a3e	0.026806947
157	0xbc8251b3	-0.015908098
158	0xbd92f320	-0.07175279
159	0xbd48ac58	-0.048992485
160	0xbc8e59f0	-0.01737687
161	0x3cf0c281	0.029389622
162	0xbd13c9e1	-0.0360812
163	0xbd07f35b	-0.033191066
164	0xbc95a033	-0.018264866
165	0xbc969d6a	-0.018385608
166	0xbc49d1d6	-0.012318095
167	0xbc5f856e	-0.013642652
168	0x3a75c099	0.00093747076
169	0xbcf10f47	-0.02942623
170	0xbd0371cd	-0.03209095
171	0xbd07f717	-0.033194628
172	0xbd18b9ab	-0.03728644
173	0xbd47c633	-0.048773002
174	0xbd2ea2f8	-0.042635888
175	0x3d365b55	0.044520695
176	0x3d87179a	0.065962985
177	0xbc87086f	-0.016483514
178	0x3b3b8b27	0.0028616877
179	0xbdbaac42	-0.09114887
180	0x3cf48bac	0.029851757
181	0x3cd06fb8	0.025443897
182	0x3cdbeefc	0.026847355
183	0xbd31a1c7	-0.043367174
184	0xbce50f86	-0.027961504
185	0x3cca97db	0.024730613
186	0xbd05aed3	-0.03263743
187	0xbda24c63	-0.07924726
188	0xbd6de423	-0.058078896
189	0x3cc53803	0.02407456
190	0xbb42d6d7	-0.0029730105
191	0xbd253ed9	-0.04034314
192	0x3c222227	0.009895838
193	0x3d9b11df	0.07571768
194	0xbc9b97aa	-0.018993217
195	0xbc8da6ac	-0.01729139
196	0x3c42d68e	0.011891974
197	0xba91505f	-0.0011086575
198	0x3d26d83c	0.04073356
199	0xbbfc327c	-0.007696448
200	0xbd5f435f	-0.05450761
201	0x3dbe99e8	0.09306699
202	0x3cbbfb84	0.02294708
203	0xbca17041	-0.019706847
204	0xbc82f0c8	-0.015983954
205	0xbc885c60	-0.01664561
206	0xbd6f7b25	-0.05846705
207	0x3dac82c7	0.08423381
208	0x3d0cb636	0.034353457
209	0x3c2da150	0.010597542
210	0x3cca700d	0.024711633
211	0xbc255135	-0.010090162
212	0x3c2e15a3	0.010625276
213	0xbda7e26b	-0.08197483
214	0xbd587205	-0.052843112
215	0xbb5e6021	-0.003393181
216	0xbda0ed70	-0.078577876
217	0x3c8ce4f3	0.017199015
218	0x3d94afea	0.072601154
219	0xbcad9534	-0.02118931
220	0xbd18cea1	-0.03730643
221	0x3c59e3e6	0.013298964
222	0x3c9db759	0.019252466
223	0x3d0b04fc	0.0339403
224	0xbce30289	-0.02771117
225	0x3bf74305	0.007545831
226	0xbd49d410	-0.049274504
227	0x3c82433a	0.015901197
228	0xbc53603d	-0.012901363
229	0x3c3edf9d	0.011649993
230	0xbc8ea61d	-0.017413193
231	0x3ba655a3	0.0050761267
232	0xbd3de20d	-0.046358157
233	0xbb949046	-0.0045338003
234	0xbce0ed83	-0.027457004
235	0x3d210600	0.039312363
236	0xbb9b6e7d	-0.004743396
237	0xbd503f7d	-0.050841797
238	0xbbf08ffd	-0.0073413835
239	0xbd69b85a	-0.057060577
240	0xbcaded18	-0.02123122
241	0xbc9a3b1d	-0.018827016
242	0xbd827cf3	-0.063714884
243	0x3c9feef7	0.019523127
244	0xb9fc54ec	-0.00048128457
245	0x3cff8804	0.031192787
246	0xbd70d27c	-0.058794484
247	0x3cfe04ad	0.031008089
248	0xbddc8160	-0.10766864
249	0xbb88d94f	-0.004176296
250	0x3ce93995	0.02846984
251	0xbd00d46b	-0.031452578
252	0x3bfe72e5	0.0077651613
253	0x3d64f45c	0.0558971
254	0xbc8a081f	-0.016849576
255	0x3cfbbcbc	0.030729644

fc3.weight f4 [200, 300]
0	0xbc7f1bbe	-0.015570579
1	0x3de0c037	0.10974162
2	0x3e0fe281	0.14051248
3	0x3dab4f2b	0.083647095
4	0xbe0a48c5	-0.13504322
5	0x3e85263e	0.2600574
6	0xbd845b4b	-0.06462725
7	0x3e06b039	0.13153161
8	0xbdfc66bf	-0.12324285
9	0xbe13c70a	-0.14431396
10	0x3db1aa36	0.08675043
11	0x3d8e54f9	0.06949801
12	0xbd8c5f3e	-0.068541035
13	0x3e0e96c3	0.13924699
14	0x3dfc2e57	0.12313526
15	0xbcdfbc48	-0.02731146
16	0x3dc71388	0.09720522
17	0x3d381e3a	0.0449507
18	0x3d7c5696	0.061606012
19	0x3c5765a5	0.013146793
20	0x3da84bcc	0.08217582
21	0x3c340ec4	0.0109898485
22	0x3d89b604	0.0672417
23	0xbdb9fcb8	-0.090814054
24	0xbd29df6a	-0.04147283
25	0x3dbd8e8d	0.09255705
26	0xbbdb7b27	-0.0066980305
27	0xbe106ff3	-0.14105205
28	0x3e03f2d7	0.12885605
29	0xbdc60f34	-0.096708685
30	0x3e6ca36f	0.2310922
31	0xbe755859	-0.23959483
32	0x3dad3d62	0.084589735
33	0xbaf3191f	-0.0018546915
34	0xbd7bcf13	-0.06147678
35	0xbdc8827c	-0.09790513
36	0x3d5cea0a	0.053934135
37	0xbe02e426	-0.12782344
38	0x3ca104af	0.019655554
39	0xbe1e4c07	-0.1545869
40	0x3dcf1050	0.10110533
41	0xbe2602e1	-0.16212036
42	0xbec4df73	-0.38451728
43	0xbd84a534	-0.064768225
44	0x3d840710	0.064466596
45	0x3da976dd	0.082746245
46	0x3d5b30cd	0.053513337
47	0x3d284846	0.04108455
48	0xbd8a6e3b	-0.06759306
49	0x3dc54b22	0.09633471
50	0xbdde7fb4	-0.10864201
51	0xbdb6953b	-0.08915182
52	0x3e45f81f	0.19332932
53	0x3e0ad058	0.1355604
54	0xbd6bc084	-0.057556644
55	0xbe1ff228	-0.15619719
56	0xbbd26660	-0.0064208955
57	0x3ded97ad	0.116011955
58	0x3d6a5339	0.057208274
59	0x3e44bfe2	0.19213822
60	0xbdd77f58	-0.10522336
61	0x3dd171ea	0.102268055
62	0x3db0c6ff	0.086317055
63	0x3ccfc358	0.025361702
64	0xbd3aeb0d	-0.04563432
65	0xbe0445f0	-0.12917304
66	0x3c83706e	0.016044822
67	0x3e2b339f	0.1671891
68	0x3e311e7b	0.17296784
69	0xbb648e36	-0.0034874803
70	0x3df58ce6	0.11989765
71	0xbe5142d4	-0.20435649
72	0x3ce261ab	0.027634462
73	0x3e2b2201	0.1671219
74	0xbc8e03e2	-0.017335836
75	0x3e121fc9	0.14269938
76	0xbdb19381	-0.08670712
77	0x3d6337fa	0.055473305
78	0xbdb992ff	-0.090612404
79	0xbc7f821c	-0.015594985
80	0xbd18b7da	-0.03728471
81	0x3e35e570	0.17763305
82	0xbde580bd	-0.112061955
83	0x3d02b074	0.03190656
84	0xbd6e6380	-0.05820036
85	0x3e896f71	0.26842836
86	0xbd5dccfd	-0.05415057
87	0x3db6739a	0.08908768
88	0xbdf5ce05	-0.12002186
89	0x3e166947	0.14688598
90	0xbd2232a0	-0.03959906
91	0x3c11b91b	0.00889423
92	0x3cb6ab85	0.022298584
93	0xbd1ff064	-0.039047614
94	0x3db8ebc6	0.09029345
95	0x3d601616	0.054708563
96	0x3d8a97c3	0.067672275
97	0xbd3a0cbd	-0.045422304
98	0xbd0d4f73	-0.034499597
99	0xbdaa6c07	-0.08321386
100	0x3dcda540	0.100412846
101	0x3dd4918d	0.10379324
102	0x3e8f9823	0.2804576
103	0xbd6020a6	-0.054718636
104	0xbd05b5eb	-0.032644194
105	0xbdd787fc	-0.10523984
106	0xbe19bb86	-0.15012941
107	0xbdfee6fd	-0.12446401
108	0xbe21958d	-0.15779705
109	0x3e3b9b6e	0.1832101
110	0xbe09e23e	-0.13465211
111	0xbe827a6f	-0.25484034
112	0x3e3e3b01	0.18577196
113	0x3da42b34	0.08016053
114	0xbd7bd208	-0.0614796
115	0xbd891736	-0.0669388
116	0x3dc6937a	0.09696098
117	0xbd724273	-0.059145402
118	0xbd2db043	-0.042404424
119	0x3eb78e72	0.35850865
120	0xbdde5efa	-0.10857959
121	0x3dad5b61	0.08464695
122	0xbd9df2c7	-0.07712322
123	0x3c91f7a1	0.017818274
124	0xbcf3daa4	-0.029767342
125	0x3e757595	0.23970635
126	0xbd8e508d	-0.069489576
127	0xbdc7ee0e	-0.09762202
128	0x3c9b2cfd	0.01894235
129	0x3bfc8315	0.007706056
130	0x3d347d6b	0.04406492
131	0xbdc52487	-0.09626108
132	0x3d55a61d	0.05216037
133	0x3ddb7964	0.10716513
134	0x3dfc0955	0.123064674
135	0x3b97d5a5	0.0046336227
136	0x3d96ec87	0.07369333
137	0x3d8c0062	0.068360105
138	0x3d898a18	0.067157924
139	0xbdd9c811	-0.10633863
140	0xbdac6ac4	-0.084188014
141	0x3e1f8df5	0.15581496
142	0xbdd40a47	-0.10353523
143	0x3e518e69	0.20464481
144	0xbd41e117	-0.047333803
145	0x3d53c5bd	0.05170225
146	0xbdb82535	-0.08991472
147	0xbd131acd	-0.03591423
148	0xbd777f32	-0.060424037
149	0x3d863111	0.065523274
150	0x3d2b8682	0.041876324
151	0xbdbe8398	-0.09302443
152	0x3d6517c5	0.05593087
153	0x3d3220d9	0.043488357
154	0x3cc4c7e0	0.02402109
155	0x3db0c0b0	0.08630502
156	0xbd92790d	-0.07151995
157	0x3d68b5cb	0.056813996
158	0x3e05d9e6	0.13071403
159	0x3e3121e9	0.17298092
160	0x3d60544c	0.05476789
161	0x3d24b2bf	0.040209528
162	0xbd7e2b83	-0.062053215
163	0x3d8d74df	0.06907057
164	0x3d8af251	0.067844994
165	0x3dbbbbdf	0.09166693
166	0xbc20c244	-0.0098119415
167	0xbb78e266	-0.003797674
168	0xbdf34ce8	-0.11879903
169	0xbc19a772	-0.009378301
170	0xbd5c59f9	-0.053796742
171	0x3b5c3017	0.0033598
172	0x3de86a7e	0.11348437
173	0x3de1e797	0.110305004
174	0x3e06bae6	0.13157234
175	0x3e1f8a16	0.1558002
176	0xbd00ddf7	-0.031461682
177	0x3c53b7e9	0.012922266
178	0x3d21bd05	0.039486904
179	0x3e952a0f	0.2913365
180	0xbd88a8ba	-0.06672807
181	0x3d4423f7	0.04788586
182	0xbe1fbab9	-0.15598573
183	0x3eb679f0	0.35639906
184	0xbd561f9c	-0.05227624
185	0xbdb9011e	-0.09033416
186	0x3e1613aa	0.14655939
187	0x3dfc2ac1	0.12312842
188	0xbde15dec	-0.11004242
189	0x3e561000	0.20904541
190	0x3debe844	0.115189105
191	0x3da4e0f7	0.08050721
192	0x3d34d4fd	0.044148434
193	0x3c213472	0.009839164
194	0xbdc0c4be	-0.094125256
195	0x3d117cfa	0.035519578
196	0x3e375243	0.17902474
197	0x3ccded31	0.025137516
198	0xbd3b6493	-0.045750212
199	0xba120286	-0.0005569834
200	0xbd3db143	-0.046311628
201	0x3d969521	0.07352663
202	0x3cfc3d77	0.030791027
203	0x3e16e3a8	0.14735281
204	0x3e574946	0.21024045
205	0x3e82057e	0.25394815
206	0xbe4369c4	-0.19083315
207	0x3d46e4f7	0.0485582
208	0x3dab70a7	0.08371096
209	0x3d65ac65	0.05607261
210	0xbc34299c	-0.010996249
211	0xbcb9888d	-0.02264812
212	0xbc9ecfd0	-0.019386202
213	0x3e1ae73b	0.1512727
214	0x3ddc89dd	0.10768483
215	0xbdb84554	-0.08997598
216	0xbe9b60d0	-0.303473
217	0x3d3e1bc5	0.0464132
218	0xbd13cba1	-0.036082868
219	0x3e376ba3	0.17912154
220	0xbe945523	-0.28971204
221	0x3ca53e9c	0.020171456
222	0xbd8aab7c	-0.06770989
223	0x3c9af6b7	0.01891647
224	0x3d9c6668	0.0763672
225	0x3dc72ddd	0.097255446
226	0x3d3692ae	0.04457348
227	0x3d943970	0.07237518
228	0xbcdf41d4	-0.027253069
229	0x3da7f45e	0.08200906
230	0xbd0a60dd	-0.033783782
231	0x3cd625ee	0.026141133
232	0xbd553579	-0.05205295
233	0xbe093824	-0.13400322
234	0x3e58baf3	0.21165065
235	0x3d8e6b7b	0.06954094
236	0x3de3c45b	0.11121436
237	0x3e1cf3d3	0.15327387
238	0xbd06caee	-0.032908373
239	0xbdccf5d9	-0.10007829
240	0x3ac9fadd	0.0015409846
241	0x3db3936e	0.08768354
242	0x3e3a6a2d	0.18204565
243	0x3e1a541a	0.15071145
244	0x3cb9c4ab	0.022676786
245	0x3dc1ca8d	0.094624616
246	0xbd91f761	-0.07127262
247	0x39d6ffbd	0.000410078
248	0xbdc05978	-0.09392065
249	0x3c581350	0.013188198
250	0xbe4712da	-0.19440785
251	0xbd0819fe	-0.033227913
252	0xbe371372	-0.17878512
253	0x3d3a6d0a	0.045514144
254	0x3e378e41	0.1792536
255	0xbd33dc0b	-0.04391102

fc3.bias f4 [200]
0	0x3d22860c	0.03967862
1	0xbcbd2473	-0.02308867
2	0xbd0b3f12	-0.033995695
3	0xbde27d22	-0.110590234
4	0xbc0fe791	-0.008783237
5	0x3d5cd1b6	0.053910933
6	0x3c9edbc8	0.01939191
7	0x3d651b07	0.05593398
8	0x3d75f176	0.06004473
9	0xbc0d750c	-0.008633863
10	0x3bbf6cc9	0.0058418256
11	0xbc541b88	-0.012946017
12	0xb9a8114e	-0.0003205635
13	0xbb990d4d	-0.004670775
14	0xbcf86ec3	-0.030326253
15	0x3d7b3567	0.061330225
16	0x3cde0445	0.027101645
17	0x3cdc1f6e	0.026870456
18	0xbd089afc	-0.03335093
19	0xbc17aa45	-0.009256904
20	0xbc9b5423	-0.018961018
21	0x3d419afa	0.047266938
22	0xbd45d4f1	-0.04829878
23	0xbd2bdc3a	-0.04195807
24	0xb8c78fc1	-9.515836e-05
25	0x3d96d94a	0.07365663
26	0x3bd9c4da	0.006645781
27	0xbbd0896e	-0.006364039
28	0xbb898837	-0.0041971463
29	0xbd738817	-0.059455957
30	0x3d94e0b2	0.0726942
31	0xbbc43f96	-0.0059890253
32	0x3cc7779d	0.024349028
33	0x3cd18912	0.025578056
34	0x3c23165a	0.0099540595
35	0x3d78629c	0.060640916
36	0xbd20d3a8	-0.03926435
37	0x3cb25bdb	0.021772316
38	0x3c16c7c4	0.009202901
39	0x3d9c12f3	0.07620802
40	0xbd10c88e	-0.035347514
41	0x3d795e54	0.060880974
42	0xba042b39	-0.0005041841
43	0xbba0f178	-0.004911598
44	0xbcfcd918	-0.030865237
45	0x3cbdb776	0.02315877
46	0x3d478f83	0.048720848
47	0x3c88dce9	0.0167069
48	0xbd32366d	-0.043508936
49	0x3c5976ca	0.01327295
50	0x3da2636a	0.07929118
51	0xbd84c9d9	-0.06483812
52	0x3c9fe1e6	0.019516896
53	0xbd22edcf	-0.039777573
54	0x3dd65303	0.10465052
55	0x3cb4d503	0.022074228
56	0xbd97d90f	-0.074144475
57	0x3c9c74ea	0.019098718
58	0xbd1111dd	-0.035417426
59	0xbc29d97e	-0.010366796
60	0x3c6bcafc	0.014391657
61	0xbcebdd46	-0.028792035
62	0x3bb8d14c	0.0056401845
63	0xbc0887f7	-0.008333198
64	0x3d70fd97	0.058835592
65	0x3d03dc25	0.032192368
66	0x3c49e6da	0.012323106
67	0xbcabb0ed	-0.020958388
68	0xbc725de6	-0.014792895
69	0xbd5ec13a	-0.054383494
70	0x3dc29464	0.095009595
71	0xbd22c93d	-0.039742697
72	0xbc8f8f9f	-0.017524539
73	0xbba8069a	-0.00512774
74	0xbd0d5623	-0.034505975
75	0xbdf53bc3	-0.11974289
76	0x3b6c32ed	0.0036041096
77	0xbbd4d899	-0.006495547
78	0xbbd2de5f	-0.0064352
79	0x3cfd16b9	0.030894624
80	0x3d33d29f	0.043902036
81	0xbd3a1f0e	-0.045439772
82	0x3d05b24a	0.032640733
83	0xbccf9382	-0.025338892
84	0x3d67ec7f	0.056622025
85	0x3ce0d1f2	0.02744386
86	0x3b96dc49	0.0046038968
87	0x3d50e660	0.051000953
88	0x3d742b26	0.059611462
89	0xbd0eb3b0	-0.034839332
90	0x3cac3010	0.021019012
91	0x3b9ff60b	0.0048816255
92	0x3c92cf32	0.017921064
93	0xbd4681a4	-0.04846348
94	0xbd9d6758	-0.07685727
95	0x3d5e1e14	0.054227903
96	0x3d915132	0.07095565
97	0xbc2ebe4e	-0.010665489
98	0x3d3f4bec	0.046703264
99	0x3d7bfcfc	0.06152056
100	0x3dcf819b	0.10132142
101	0xbe134cc3	-0.14384751
102	0x3ccdf797	0.025142474
103	0xbe054b63	-0.13017039
104	0xbd2e5827	-0.042564537
105	0x3d515a94	0.051111773
106	0x3cc7b8e8	0.024380162
107	0xbc8cd1b5	-0.01718984
108	0x3ca3fe7f	0.020018814
109	0xbbdbe549	-0.0067106825
110	0x3d569ffd	0.05239867
111	0x3ce2dab8	0.027692184
112	0x3cd80bb1	0.026372762
113	0x3d3d06db	0.046149116
114	0xbd16eaa3	-0.03684486
115	0xbd30a7da	-0.043128826
116	0xbc7c9c4b	-0.0154181225
117	0xbcbdf056	-0.02318589
118	0xbd138de8	-0.036024004
119	0x3d09cdac	0.03364341
120	0x3d7b6119	0.061371896
121	0x3d0f2d5f	0.03495538
122	0x3cae34fb	0.021265497
123	0x3b5d8765	0.0033802625
124	0x3c4b4be4	0.01240823
125	0xbd211075	-0.039322335
126	0x3c1993b1	0.009373591
127	0xbd454110	-0.04815775
128	0x3d0286df	0.031866904
129	0xbd95b782	-0.07310392
130	0xbde9fad4	-0.11424795
131	0x3d99227e	0.07477282
132	0xbd767efe	-0.060179703
133	0x3ce72c6a	0.02821942
134	0xbe15e49c	-0.14637989
135	0xbcdaef02	-0.026725296
136	0xbce372f0	-0.027764767
137	0x3c23e714	0.010003824
138	0xbc9ceee7	-0.019156886
139	0xbd7d15fd	-0.061788548
140	0x3bc128d2	0.0058947587
141	0xbd6ef62b	-0.058340233
142	0x3c96878f	0.018375186
143	0xbc97f5c4	-0.018549807
144	0xbd66b415	-0.056324083
145	0x3cb1360d	0.021632219
146	0xbc81355e	-0.015772518
147	0x3ce2b4af	0.027674047
148	0x3da6f5b6	0.081523344
149	0x3dafa31c	0.085760325
150	0xbc99e9f5	-0.018788317
151	0xbd0058fb	-0.03133486
152	0xbd10736e	-0.035266332
153	0xbca6f697	-0.020381255
154	0xbd74265f	-0.059606906
155	0x3dbd8e16	0.09255616
156	0xbd4e6fdc	-0.050399646
157	0x3b292689	0.0025810322
158	0x3d2da54e	0.042393975
159	0x3d694767	0.05695286
160	0xbc5e270f	-0.013559117
161	0xbc8db764	-0.017299362
162	0xbd227b96	-0.039668642
163	0xbc3f24ff	-0.011666535
164	0xbc5a1b00	-0.013312101
165	0x3d282b34	0.041056827
166	0x3d33cf70	0.043899
167	0xbd3f0a44	-0.04664065
168	0x3d6bd51a	0.057576276
169	0x3cdb375e	0.0267598
170	0xbd929881	-0.07157994
171	0xbb798ec1	-0.0038079473
172	0xbc048a2f	-0.008089586
173	0xbcf19eb4	-0.02949462
174	0xbd16581d	-0.036705125
175	0xbae477dd	-0.0017430742
176	0x3d9e5067	0.07730179
177	0xbde84d74	-0.11342898
178	0x3cd6441f	0.02615553
179	0x3da8981b	0.08232137
180	0x3c36871d	0.011140612
181	0x3d71e03e	0.059051745
182	0xbbbf0e42	-0.005830557
183	0x3d4d4a4c	0.050119683
184	0x3d156e6d	0.036482263
185	0x3c5223ae	0.0128258895
186	0xbab0564e	-0.0013453455
187	0x3c6e4fb3	0.014545369
188	0xbdcb144c	-0.09915981
189	0xbd7a9955	-0.061181385
190	0xbd2457ea	-0.040122904
191	0x3d1385e0	0.036016345
192	0xbc09c16f	-0.008407935
193	0x3d88ed63	0.06685903
194	0x3bc894e3	0.0061212643
195	0x3d4e6a92	0.050394602
196	0x3ce31002	0.027717594
197	0xbda015d3	-0.07816663
198	0xbd6c9f87	-0.057769325
199	0xbd09d4a3	-0.03365005

mu_1.weight f4 [2, 200]
0	0xbe00ae83	-0.12566571
1	0x4001d655	2.0287068
2	0xbe0a4503	-0.13502888
3	0xbf5d28aa	-0.86390173
4	0xbf09156d	-0.5354832
5	0xbe358c67	-0.1772934
6	0xbc2b558b	-0.010457407
7	0xbe572a13	-0.21012144
8	0x3e62437c	0.22096056
9	0xbf3b60d4	-0.73194623
10	0xbe99a2d2	-0.30007035
11	0x3ec1113f	0.3770847
12	0xbe134631	-0.14382245
13	0xbf09a362	-0.5376493
14	0xbe9d8670	-0.3076663
15	0x3e134e63	0.14385371
16	0x3eb89617	0.3605201
17	0xbe095084	-0.1340962
18	0xbefeacbf	-0.4974117
19	0xbe8cfeed	-0.27538243
20	0xbe34af35	-0.17644961
21	0x3fabcff8	1.3422842
22	0x3f11af6f	0.56908315
23	0xbb52c08b	-0.0032158222
24	0xbe61ab1b	-0.22037928
25	0x3e04aec7	0.12957297
26	0xbd16ed60	-0.036847472
27	0x3e33e63f	0.175683
28	0x3e27a69c	0.1637215
29	0x3b858489	0.0040746373
30	0x3f1e077a	0.6173016
31	0xbd7636f9	-0.06011102
32	0x3f15062d	0.5821255
33	0xbf0a5d77	-0.54048866
34	0xbc783efc	-0.015151735
35	0x40122b8f	2.2839086
36	0x3f0c96a4	0.5491736
37	0xbd30cf0b	-0.0431662
38	0x3ee48b75	0.44637647
39	0xbe802ae7	-0.25032732
40	0x3ccd569e	0.025065716
41	0x3e5279c3	0.20554261
42	0xbd9853d7	-0.07437866
43	0xbe529f36	-0.20568547
44	0xbeecb47a	-0.46231443
45	0x3d0b9ea1	0.034086827
46	0x3e2ca801	0.16860963
47	0xbe522206	-0.20520791
48	0xbebb02d9	-0.3652561
49	0x3dc9c713	0.098524235
50	0x3e6c9602	0.23104098
51	0xbea71d3e	-0.32639498
52	0x3e929b71	0.28634217
53	0xbdb47ee7	-0.08813267
54	0xbcc7f8b9	-0.024410592
55	0xbe756727	-0.23965131
56	0x3eb09628	0.3448956
57	0xbecf7318	-0.40517497
58	0x3e9fead4	0.31233847
59	0xbdfe2324	-0.12409046
60	0x3e9d8d1c	0.3077172
61	0xbede9eff	-0.4348068
62	0x3eaa77cd	0.33294526
63	0xbe7df977	-0.24802195
64	0x3e4fe814	0.20303375
65	0xbe09c15e	-0.1345267
66	0x3ebd7dec	0.37010133
67	0xbedacfaf	-0.42736575
68	0xbe6c53aa	-0.2307879
69	0xbe5fe791	-0.2186568
70	0xbebf43dd	-0.37356463
71	0xbe23c17e	-0.1599178
72	0x3c922fb7	0.017845018
73	0x3e90d88a	0.28290206
74	0xbf3e93ff	-0.74444574
75	0xbf1a454c	-0.6026199
76	0x3f15f260	0.5857296
77	0x3e02c5bf	0.12770747
78	0x3eca6c5e	0.39535803
79	0x3d6afa7b	0.057367783
80	0x3f10825b	0.56448907
81	0xbefbf531	-0.49210504
82	0x3e5de962	0.2167106
83	0xbef3e356	-0.4763438
84	0xbe94e4db	-0.29080853
85	0xbea69a58	-0.3253963
86	0x3eaa880a	0.33306915
87	0x3da94a2f	0.082661025
88	0x3eaa27d0	0.332335
89	0x3ed8a3b8	0.42312407
90	0x3e39b938	0.18137062
91	0xbd915705	-0.07096676
92	0xbe7e9d0a	-0.24864593
93	0xbd803e12	-0.06261839
94	0xbe845e3c	-0.25853145
95	0x3d2ec207	0.042665508
96	0x3dac2eed	0.08407388
97	0xbf149c2c	-0.580508
98	0x3ecbe09e	0.39819807
99	0x3e9e792f	0.3095183
100	0x3c9c062f	0.019045917
101	0xbeb49e24	-0.35276902
102	0x3dc9f817	0.098617725
103	0xbf7e734e	-0.9939469
104	0xbebea267	-0.37233278
105	0xbf01dacb	-0.50724477
106	0x3ec8e42c	0.3923658
107	0x3eae58fc	0.34052265
108	0x404c48f1	3.191952
109	0xbe1ed860	-0.15512228
110	0xbc909a98	-0.017651841
111	0x3dc38b14	0.095480114
112	0x3f070395	0.5273984
113	0x3ebd113c	0.3692721
114	0x3f0cee71	0.5505133
115	0xbda280f4	-0.07934752
116	0x3fd1891a	1.6369965
117	0x3f404581	0.75106055
118	0x3dccb650	0.09995711
119	0xbeb04d7e	-0.34434122
120	0x3ec0a2c2	0.37624174
121	0x3ef87c2c	0.48532236
122	0x3ec358bc	0.38153636
123	0xbe1240e0	-0.1428256
124	0xbebae6cf	-0.36504218
125	0x3eab9a86	0.3351633
126	0x3ee26b93	0.44222698
127	0xbe68db66	-0.22739944
128	0x3d8822ea	0.06647284
129	0x3f9b9dc7	1.2157525
130	0xbf2578d8	-0.6463752
131	0x3f02b472	0.5105659
132	0xbe689f84	-0.227171
133	0x3d913e4e	0.07091962
134	0xbf98163e	-1.1881788
135	0xbf1651c9	-0.58718544
136	0x3ea74011	0.32666066
137	0x3dff7cab	0.124749504
138	0xbef29335	-0.47377935
139	0xbe766983	-0.24063687
140	0x3e76e15a	0.24109402
141	0xbeffdda4	-0.49973786
142	0x400a1007	2.1572282
143	0x3f83bc13	1.0291771
144	0xbe7ba5cb	-0.24574964
145	0xbebdac1b	-0.3704537
146	0x3ee2d64a	0.44304115
147	0x3edcbdb9	0.43113497
148	0x3e065a7d	0.13120456
149	0x3f0b4932	0.5440856
150	0x3fc6e07a	1.5537255
151	0xbd01fd76	-0.03173586
152	0xbebed9c0	-0.37275505
153	0x3ec0ca6b	0.37654433
154	0xbead0ff6	-0.3380124
155	0x3f91834b	1.1368192
156	0xbea5171d	-0.32244197
157	0x3feb447a	1.8380272
158	0x3e90862e	0.2822737
159	0x3e4f5ac7	0.20249473
160	0x3eb6c40d	0.3569645
161	0x3c894689	0.016757267
162	0xbe8f2eea	-0.2796548
163	0xbed65551	-0.41861966
164	0xbe6a096c	-0.22855157
165	0x3eade571	0.33964112
166	0x3e8b3562	0.27189165
167	0xbec238ed	-0.37934056
168	0x3e826603	0.25468454
169	0xbed6e33e	-0.41970247
170	0xbe4505d5	-0.19240506
171	0xbd0a7aa0	-0.03380835
172	0x3e1c0127	0.15234815
173	0x3e22f8e1	0.15915252
174	0x3f0c6747	0.5484509
175	0x3f21ffe2	0.6328107
176	0x3fe9cd85	1.8265845
177	0xbf49b187	-0.7878651
178	0x3f372723	0.7154409
179	0x3e8742ca	0.26418144
180	0x3ed78c65	0.420993
181	0xbcf2ab1e	-0.02962261
182	0xbc1f60a4	-0.009727631
183	0x3ebd1b0f	0.36934707
184	0x3b9b2573	0.004734689
185	0xbe4257b0	-0.18978763
186	0x3e2e006e	0.16992351
187	0xbf872a58	-1.0559797
188	0x3f67fe79	0.9062267
189	0xbe96b89b	-0.29437718
190	0xbe9c2cea	-0.30503017
191	0x3e04ba62	0.12961724
192	0xbd3e0e0d	-0.04640012
193	0x3dde781b	0.10862752
194	0xbeb28fe7	-0.34875414
195	0x3d2af6c5	0.041739244
196	0x3f0c4fee	0.54809463
197	0xbf176555	-0.59138995
198	0xbef237f0	-0.47308302
199	0xbe3324cb	-0.17494504
200	0xbe9c98b8	-0.30585265
201	0x3f0db461	0.5535336
202	0x3ea4c8fd	0.32184592
203	0xbe9a7eb4	-0.30174792
204	0xbe394002	-0.18090823
205	0x3ec58441	0.38577464
206	0xbed3d1bb	-0.4137095
207	0x3ed36e87	0.41295263
208	0xc00c391d	-2.190986
209	0xbf3b843f	-0.73248667
210	0x3ed0aef9	0.40758494
211	0x3e11192a	0.14169756
212	0x3f75ffdd	0.9609354
213	0xbd3bc5f4	-0.04584308
214	0x3ea47479	0.32120112
215	0x3dd80111	0.105470784
216	0xbf20a1a9	-0.62746674
217	0x3f637223	0.88846034
218	0x3e7a7515	0.24458726
219	0xbe32772d	-0.17428274
220	0x3e9a2b5d	0.3011121
221	0x3f92d5c0	1.1471481
222	0x3e52bca7	0.20579778
223	0xbf9b3b64	-1.21275
224	0xbeaf3440	-0.3421955
225	0x3f44803c	0.7675817
226	0xbf0566c7	-0.5210995
227	0x3f3dccd7	0.74140686
228	0xbf027e79	-0.5097423
229	0x3ec8f89e	0.3925218
230	0x3f244144	0.6416209
231	0x3f9042dc	1.1270404
232	0xbeab9053	-0.33508548
233	0x3f0548cd	0.5206421
234	0xbfc23d56	-1.5174968
235	0x3f259588	0.6468129
236	0xbe80bacc	-0.25142515
237	0xbe8f7fff	-0.2802734
238	0x3ebf69c3	0.37385377
239	0xbe6ec113	-0.2331584
240	0xbdc2e99e	-0.09517215
241	0x3cb8110c	0.022469066
242	0x3f8cc1a5	1.0996596
243	0xbea581d6	-0.3232562
244	0x3ef376a4	0.47551453
245	0xbe866073	-0.2624546
246	0x3e9e1510	0.30875444
247	0x3e936c83	0.28793725
248	0x3e8de2ed	0.27712193
249	0x3f6c9ccb	0.9242675
250	0x3ec05b9b	0.3756989
251	0xbe685e78	-0.22692287
252	0x3dabb982	0.08384992
253	0xbfc2398a	-1.517381
254	0xbee07231	-0.4383712
255	0xbe8bba8f	-0.2729077

mu_1.bias f4 [2]
0	0x3c0ed357	0.0087173795
1	0xbd90ed7e	-0.07076548
